app/src/main/ml/potato.tflite (tflite, 741824 bytes, 16 tensors)

sequential_2/conv2d/Relu;sequential_2/conv2d/BiasAdd;sequential_2/conv2d/Conv2D;sequential_2/conv2d/BiasAdd/ReadVariableOp f4 [32, 3, 3, 3]
0	0xb9b26c7a	-0.00034031627
1	0xb9567b39	-0.00020454534
2	0x39674381	0.00022055024
3	0xb975fdc1	-0.00023459551
4	0xb812ccd8	-3.4999888e-05
5	0xb95d9b4d	-0.00021134056
6	0x3757dccd	1.2866408e-05
7	0x378b7832	1.6626062e-05
8	0xb9a3506a	-0.00031149696
9	0xb9e23f95	-0.0004315345
10	0x39f0ede1	0.000459536
11	0xb8dce030	-0.00010532176
12	0xb9b0fb17	-0.00033756412
13	0xb8bdedb5	-9.056499e-05
14	0x39d6a583	0.00040940577
15	0xb9622b2c	-0.00021569122
16	0x3a1235c2	0.00055774685
17	0x39cd2de3	0.00039134835
18	0xb9b5322b	-0.00034560388
19	0x39254871	0.00015762613
20	0x39ab7e42	0.0003270973
21	0xb9b21449	-0.0003396592
22	0x39456c8e	0.00018827824
23	0x3913191b	0.00014028365
24	0x37aa28c6	2.0284566e-05
25	0x39f099c8	0.00045890943
26	0x384bb0d4	4.8563656e-05
27	0xb8969491	-7.18023e-05
28	0x3990301c	0.00027501665
29	0xb93e34a5	-0.00018139424
30	0x3a017a8b	0.000493922
31	0x3a01bf7a	0.00049494917
32	0xb9a98f7b	-0.00032341093
33	0x39b6c1e8	0.00034858217
34	0x39eed3f5	0.00045552818
35	0xba25e577	-0.00063284434
36	0xb9b4d76f	-0.00034492786
37	0x395fba6b	0.00021336383
38	0xba310a28	-0.00067535276
39	0xba0538a6	-0.00050819886
40	0x3a262d60	0.0006339159
41	0x39cf335c	0.00039520382
42	0x39bef286	0.00036420318
43	0xb8495f2d	-4.8010774e-05
44	0xb92e0884	-0.00016597105
45	0xba165cec	-0.00057358923
46	0x37179aa8	9.03631e-06
47	0xb9c705cd	-0.0003796056
48	0xb907e9f4	-0.00012961758
49	0x397a623d	0.00023878455
50	0x38dd944b	0.00010565723
51	0xb8745d8c	-5.8261256e-05
52	0x39a22ff1	0.00030934767
53	0xba047de3	-0.0005054159
54	0xb9f3df1c	-0.000465148
55	0x38ca1bf3	9.6373165e-05
56	0x39d739a3	0.00041050938
57	0xb9fe9dca	-0.00048564217
58	0x3a08cdc7	0.00052186515
59	0xb9262a7e	-0.00015846823
60	0xba174b39	-0.0005771402
61	0x395bf636	0.00020977188
62	0xb9add264	-0.00033153885
63	0xb9517e98	-0.00019978953
64	0x38c1e111	9.244879e-05
65	0x38f8f863	0.00011871827
66	0x397f1231	0.00024325472
67	0x3a1036af	0.00055013126
68	0x3887ef71	6.481901e-05
69	0xba0bc948	-0.00053324224
70	0xb8731dd9	-5.7963513e-05
71	0x39b4efb4	0.00034510868
72	0xba18b22a	-0.00058248884
73	0x3a1d5c3f	0.00060028204
74	0x395979ad	0.0002074006
75	0xb8ee86b3	-0.00011373814
76	0x39f03d3b	0.00045821987
77	0xb9966f69	-0.00028693237
78	0x39b1832b	0.000338578
79	0xb92e9c20	-0.00016652094
80	0x39819e8d	0.00024722927
81	0xb91f2768	-0.00015178102
82	0xb989e44e	-0.00026300777
83	0xb9da55e6	-0.000416442
84	0xb8e6f259	-0.000110123954
85	0x39a58e44	0.0003157725
86	0x39ff8054	0.00048733002
87	0x39b952a4	0.00035347522
88	0x398b4ea9	0.00026570752
89	0xb88d79ee	-6.746115e-05
90	0x39f1663d	0.00046043276
91	0x392f7036	0.00016731102
92	0xb9f77f1a	-0.0004720621
93	0x3a0ee1eb	0.00054505345
94	0xb9b47534	-0.00034419599
95	0xb9cf1596	-0.000394982
96	0xb98739cb	-0.00025792266
97	0xb9c438fc	-0.0003742649
98	0x39e1725c	0.0004300055
99	0x38a69fb5	7.9452446e-05
100	0x394dfcac	0.00019644451
101	0x39281bc8	0.00016032078
102	0x39fe8b76	0.00048550562
103	0xba226ad7	-0.000619573
104	0x39fdc57f	0.00048403066
105	0xb8f43408	-0.00011644518
106	0xba22b6f1	-0.000620707
107	0x3823777d	3.897351e-05
108	0x3926920e	0.00015885403
109	0xb92efe3f	-0.00016688647
110	0x38d6cdf4	0.00010242677
111	0xb9d66acd	-0.00040896834
112	0xb9098e49	-0.00013118343
113	0xb95b08e0	-0.00020888774
114	0x38bae098	8.911005e-05
115	0xb9c9ef1b	-0.00038515855
116	0xb9ed910c	-0.0004531223
117	0x39a8b946	0.00032181496
118	0x39c7be6b	0.0003809811
119	0xb8dd690b	-0.00010557667
120	0x3a103a99	0.0005501896
121	0x39dd90dc	0.00042260333
122	0xba02ee28	-0.00049945945
123	0x39ff741d	0.000487239
124	0x39dc4070	0.0004200968
125	0x39e17783	0.00043004387
126	0x39e3a11b	0.00043416847
127	0xb9a8949d	-0.00032154183
128	0xb94521d5	-0.00018799987
129	0xb857944d	-5.139811e-05
130	0xb9bb7cbd	-0.00035760357
131	0xb90dc391	-0.00013519662
132	0x39432c52	0.0001861316
133	0xba1166fb	-0.00055466563
134	0x393e0acf	0.00018123839
135	0xb9f1d5a9	-0.0004612629
136	0x390bf243	0.00013346323
137	0xb9a51fd5	-0.0003149497
138	0x39d91932	0.00041408237
139	0xb80069f8	-3.061627e-05
140	0x39519c66	0.00019990056
141	0x3931b533	0.00016947537
142	0x3939093b	0.00017646413
143	0xb92dd1c6	-0.00016576712
144	0x3690faa7	4.320714e-06
145	0x389ccc7f	7.47675e-05
146	0x39ecd2f0	0.00045170588
147	0x3988d8c7	0.00026101453
148	0x39305fc6	0.00016820346
149	0xb9fd2e87	-0.00048290586
150	0x3999d944	0.0002934431
151	0xb8b30c5d	-8.537688e-05
152	0x3955d7d0	0.0002039366
153	0xb9fdbe62	-0.00048397767
154	0x39611329	0.0002146481
155	0x39e64bc2	0.00043925463
156	0x399cc94d	0.0002990462
157	0x3997bd9b	0.0002894223
158	0xb87a5ec7	-5.9692913e-05
159	0x39517964	0.00019977015
160	0x398d8840	0.0002699513
161	0xb98eda4c	-0.00027246994
162	0x394e7493	0.00019689118
163	0xb5d07325	-1.5530719e-06
164	0x37a1c253	1.9283185e-05
165	0xba1a8c25	-0.0005895517
166	0x399b178b	0.00029581445
167	0x38416dae	4.6116933e-05
168	0x38a39623	7.800411e-05
169	0xb8f90f09	-0.00011876046
170	0xb98a91da	-0.0002643008
171	0xba1c3877	-0.00059593417
172	0x39ce43eb	0.00039341985
173	0xb7a866a0	-2.007495e-05
174	0x39561168	0.00020415115
175	0x398d821f	0.00026990563
176	0xb9bf2429	-0.000364573
177	0xba21da45	-0.00061741873
178	0x399c830c	0.00029852276
179	0xb9a4cc49	-0.00031432722
180	0xb912c17a	-0.0001399572
181	0xb8c987a8	-9.609695e-05
182	0x393c5bdd	0.00017963299
183	0xb968e87c	-0.00022211851
184	0x399c4e91	0.00029813175
185	0xb9a60944	-0.0003166889
186	0xb9ddc6eb	-0.0004230061
187	0x38fd8607	0.00012088945
188	0xb90daf43	-0.00013512098
189	0xb9bb4005	-0.00035715118
190	0xb7fc0e95	-3.0047531e-05
191	0xb9ee14ff	-0.0004541054
192	0x39fe7ebe	0.00048541086
193	0xba0395cb	-0.00050195743
194	0x3999d55b	0.00029341396
195	0x3a1ac874	0.00059045036
196	0x393497b6	0.00017222654
197	0xb787d718	-1.6193415e-05
198	0xb9c77f2b	-0.00038050985
199	0xb958c921	-0.00020674292
200	0xba06020d	-0.0005112
201	0xb9a2131a	-0.0003091328
202	0x399c4e25	0.0002981286
203	0x39a77c50	0.00031945342
204	0x3a0b396b	0.0005310985
205	0x3a19472c	0.0005847092
206	0x3937b324	0.00017518975
207	0xb979a92f	-0.00023809516
208	0xb9ff5db7	-0.00048707213
209	0xb925d55b	-0.00015815107
210	0xb9cf3b64	-0.00039526366
211	0xb9aef444	-0.00033369858
212	0x39ba4531	0.00035528236
213	0xb87cbe02	-6.025844e-05
214	0xb9ac5fee	-0.0003287787
215	0x39a4aeb1	0.00031410673
216	0xb8d04edb	-9.932901e-05
217	0x39c295db	0.00037114215
218	0x39c2aba7	0.00037130454
219	0x395f50f5	0.00021297096
220	0x3a0c953c	0.0005362814
221	0xb9b6713d	-0.00034798114
222	0xba15e73b	-0.0005718355
223	0xb9e85e57	-0.00044320777
224	0x390d1dad	0.00013457863
225	0x39bd72fb	0.00036134556
226	0xb90b6a2f	-0.0001329563
227	0x3a1e1e00	0.0006031692
228	0xb89074e0	-6.888225e-05
229	0xb9f9fc0b	-0.00047680768
230	0xb94a8be6	-0.00019316337
231	0x39cf5925	0.00039548535
232	0xba068d77	-0.0005132774
233	0xba136471	-0.0005622572
234	0x39a1f3f2	0.00030890066
235	0xb971b17c	-0.00023049669
236	0xb91bee93	-0.00014870828
237	0xb95273d4	-0.0002007031
238	0x38b28350	8.51216e-05
239	0x3976441f	0.00023485765
240	0xb8bb946e	-8.944502e-05
241	0xb96b6655	-0.00022449468
242	0xb9d2d12b	-0.00040210164
243	0xb94e3835	-0.0001966663
244	0xba1ebf76	-0.00060557516
245	0xb9bc50bb	-0.00035918303
246	0xb8b33a78	-8.546276e-05
247	0xb9d5eaf6	-0.00040801585
248	0x3949b69f	0.00019236885
249	0x39c93c6f	0.00038382734
250	0x38776185	5.898021e-05
251	0x38678213	5.5195833e-05
252	0xb9911d5f	-0.00027678438
253	0xba1b5765	-0.00059258036
254	0xb9da2773	-0.00041609592
255	0xb78949b0	-1.6365986e-05

sequential_2/conv2d/BiasAdd/ReadVariableOp f4 [32]
0	0xbc241f66	-0.010017252
1	0xbd792e47	-0.06083515
2	0xbd163d85	-0.036679763
3	0xbbb2f06a	-0.0054607885
4	0xbc4e4aff	-0.012591123
5	0xbdd676fe	-0.10471915
6	0x3d5c8ba3	0.053844105
7	0xbc0ec4fd	-0.008713958
8	0x3b9372c9	0.0044997674
9	0x3cc445c7	0.023959054
10	0x3bd519bb	0.0065033115
11	0xbd54c26d	-0.05194323
12	0xbc6b72fc	-0.014370676
13	0xbdd8d8f1	-0.10588253
14	0x3c8af5ee	0.016962972
15	0x3c47c5b4	0.012193132
16	0xbb887800	-0.0041646957
17	0xbd9d822e	-0.076908454
18	0x3c52c26a	0.012863735
19	0x3d824ff2	0.063629046
20	0xbbab7174	-0.0052320305
21	0x3dc86368	0.09784585
22	0x3d1acfe4	0.037795916
23	0xbc2846a9	-0.010270753
24	0xbde0c160	-0.10974383
25	0xbc459597	-0.012059591
26	0xbd75eec5	-0.06004216
27	0xbbd9273c	-0.0066269916
28	0x3d2bea81	0.041971687
29	0x3d0fe6ca	0.035132207
30	0x3cb80ad6	0.022466104
31	0x3c8cd19f	0.017189799

sequential_2/conv2d_1/BiasAdd/ReadVariableOp f4 [64]
0	0x3d9326b2	0.07185115
1	0xbc3b5810	-0.01143457
2	0x3c0ee9f7	0.008722774
3	0xbd329adb	-0.043604713
4	0xbced5c79	-0.028974758
5	0x3d19a1b7	0.03750774
6	0xbcfd4762	-0.030917827
7	0xbcf501b0	-0.029908031
8	0x3c7fd7ac	0.015615385
9	0xbd062bbd	-0.032756556
10	0xbd2bd803	-0.04195405
11	0xbc88e482	-0.016710524
12	0xbc8d6e57	-0.017264528
13	0xbb9af057	-0.004728358
14	0xbac2dfb8	-0.0014867699
15	0xbc947c12	-0.018125568
16	0x3dbb744c	0.09153041
17	0xbc92b854	-0.01791016
18	0x3d7f4827	0.06232467
19	0xbd2fd2c6	-0.04292562
20	0xbc0dbaa0	-0.008650452
21	0xbd5543c4	-0.05206658
22	0x3dc2dfe0	0.09515357
23	0xbd0b1d92	-0.033963747
24	0xbddd2b12	-0.10799231
25	0xbcbb8ca7	-0.022894217
26	0xbced3113	-0.028954064
27	0x3d77967a	0.06044624
28	0xbd23ba84	-0.039972797
29	0xbcdbde69	-0.026839452
30	0xbca427af	-0.020038454
31	0x3de60697	0.11231726
32	0xbd01aef1	-0.031660978
33	0x3d85a431	0.06525458
34	0xbc290ac4	-0.010317508
35	0xbc9ed42b	-0.019388279
36	0xbc0f4d2b	-0.008746426
37	0x3da8ff6e	0.08251844
38	0xbd11f909	-0.03563789
39	0x3cfac89a	0.030613232
40	0xbc29613b	-0.010338123
41	0xbca05db1	-0.019575926
42	0xbb38e419	-0.0028212129
43	0xbd3a8910	-0.04554087
44	0xbc9f03cf	-0.019410996
45	0xbd2514b4	-0.040302947
46	0x3c86b8b0	0.016445488
47	0x3d5f9d21	0.05459321
48	0x3d52d301	0.05147076
49	0xbb9fdcbd	-0.004878609
50	0xbd8cd935	-0.068773665
51	0x3c91c650	0.017794758
52	0xbd643c1f	-0.0557214
53	0xbcaa991c	-0.020824961
54	0xbd254b4f	-0.040355023
55	0x3db41059	0.087921806
56	0xbcfd302d	-0.030906761
57	0x3d255c04	0.040370956
58	0x3c87fc53	0.01659981
59	0x3c0cc815	0.008592625
60	0xbd4b4119	-0.04962263
61	0xbd0ab84d	-0.03386717
62	0xbcaa597f	-0.020794628
63	0xbd246c86	-0.04014256

sequential_2/conv2d_2/BiasAdd/ReadVariableOp f4 [64]
0	0xbd4ab7b4	-0.0494916
1	0xbbe47f78	-0.0069732033
2	0xbd129933	-0.035790633
3	0xbcd56887	-0.02605082
4	0xbc024883	-0.007951858
5	0xbd0bae0d	-0.034101535
6	0xbc5de296	-0.013542792
7	0xbda1ecbb	-0.07906481
8	0x3cd09027	0.025459362
9	0xbc95466c	-0.018222056
10	0x3bc24902	0.0059291134
11	0xbb908d83	-0.0044114008
12	0xbc1193e0	-0.008885354
13	0xb9f18894	-0.0004606886
14	0xbd9d379b	-0.076766215
15	0xbb8f7d99	-0.004378986
16	0xbd16df35	-0.03683396
17	0xbcc47a00	-0.023983955
18	0xbc666666	-0.0140625
19	0xbc4f6001	-0.012657166
20	0xbd3ef19f	-0.046617147
21	0xbb9a988a	-0.004717891
22	0xbc5d1706	-0.013494259
23	0x3d424548	0.047429353
24	0xbcb08341	-0.021546962
25	0xbcfa3e49	-0.030547278
26	0xbbb3e34e	-0.0054897433
27	0xbd98b59b	-0.074565135
28	0xbbf21d6b	-0.007388761
29	0xbcd0b57b	-0.025477162
30	0x3d3052c3	0.043047678
31	0xbccdd4a1	-0.025125803
32	0x3cb1a983	0.021687275
33	0xbc8ea202	-0.017411236
34	0xbcad3c1f	-0.021146832
35	0x3bb4d47d	0.0055184946
36	0xbc0429d3	-0.008066612
37	0x3d26af63	0.040694606
38	0x3d0b6e2d	0.03404062
39	0x3d7c5531	0.061604682
40	0x3d529c73	0.051418733
41	0x3d62ea04	0.055398956
42	0xbd532a70	-0.051554143
43	0xbbf21a60	-0.007388398
44	0xbcf8200f	-0.030288724
45	0xbc2e1b5c	-0.01062664
46	0xbd04d5b9	-0.032430384
47	0xbc3b4252	-0.011429386
48	0x3bfb4ab2	0.0076688165
49	0xbcceae66	-0.025229644
50	0x3c803459	0.015649961
51	0xbd4620a0	-0.048370957
52	0x3dc2855e	0.09498094
53	0x3cff495e	0.031162914
54	0xbcd4cb6b	-0.025975903
55	0xbce88fa3	-0.028388804
56	0x3cf47983	0.029843098
57	0xbc9c7fe6	-0.019103955
58	0xbd1ba494	-0.03799875
59	0xbc0dc7e4	-0.008653615
60	0x3d1c5993	0.038171362
61	0xbd22a43d	-0.03970741
62	0xbb1a66bd	-0.0023559772
63	0x3c9f09d5	0.019413868

sequential_2/conv2d_3/BiasAdd/ReadVariableOp f4 [64]
0	0xbcdae1dc	-0.026719026
1	0xbd831721	-0.06400896
2	0xbc52d7d0	-0.0128688365
3	0x3caa2894	0.020771302
4	0x3c315d40	0.010825455
5	0xbd2b8b72	-0.041881032
6	0xbc837374	-0.016046263
7	0xb925a4e8	-0.00015797059
8	0xbd54697f	-0.05185842
9	0xbca937c3	-0.020656472
10	0xbd9fd9ec	-0.07805237
11	0xbd1facb0	-0.038983047
12	0xbc889b8b	-0.016675731
13	0xbc5f9fa0	-0.013648897
14	0xbc01acd9	-0.007914745
15	0xbca9e83d	-0.020740623
16	0xbcb97f19	-0.022643613
17	0x3aafb1ec	0.0013404465
18	0x3c080398	0.008301638
19	0xbcc2762d	-0.023737991
20	0xbdbc9ce2	-0.092096105
21	0xbca3fafa	-0.020017136
22	0x3d08381f	0.033256646
23	0xbc151e63	-0.009101483
24	0xbcaebacf	-0.021329312
25	0xbc249af8	-0.010046713
26	0xbcb92979	-0.022602784
27	0xbd913d41	-0.070917614
28	0xbc71cdbe	-0.014758525
29	0x3d190487	0.037357833
30	0xbc6ccef7	-0.014453641
31	0xbc424b7a	-0.011858815
32	0xbd13ea0b	-0.036111873
33	0xbd2b6fea	-0.041854776
34	0xbcbab4e2	-0.02279133
35	0xbc777095	-0.015102525
36	0x3defdae9	0.11711676
37	0xbc2ac9a9	-0.010424056
38	0xbc98d6be	-0.018657085
39	0xbd825bd3	-0.0636517
40	0x3cffe090	0.03123501
41	0xbc470325	-0.012146746
42	0x3cf2472a	0.02957495
43	0x3c8ad61a	0.016947795
44	0xbd7df80b	-0.06200413
45	0xbc2ef220	-0.010677844
46	0xbc8e8b79	-0.01740049
47	0xbc96f12c	-0.018425547
48	0x3dafc9c5	0.08583406
49	0xbc66ebbe	-0.014094291
50	0xbd0a47fa	-0.03376005
51	0xbcbec0c8	-0.023285285
52	0xbd7916f6	-0.060812913
53	0xbba0a9e4	-0.004903065
54	0xbc69a52d	-0.014260572
55	0xbcf168dd	-0.029468948
56	0x3cb544cc	0.022127531
57	0x3c337d7c	0.010955211
58	0xbd7e5b18	-0.062098593
59	0x3c757cad	0.014983338
60	0x3ac4a153	0.0015001692
61	0xbc9b973c	-0.018993013
62	0xbc0a104d	-0.008426738
63	0xbc688d92	-0.014193909

sequential_2/conv2d_4/BiasAdd/ReadVariableOp f4 [64]
0	0xbc923f6e	-0.017852511
1	0xbdae12f8	-0.08499712
2	0x3cfb245a	0.030656982
3	0xbc4cc7f1	-0.012498842
4	0xbcb17681	-0.021662952
5	0xbcb489bf	-0.022038339
6	0xbcb4421d	-0.022004182
7	0x3cfba08f	0.030716209
8	0xbd99d39a	-0.07511063
9	0xbd1020b6	-0.035187446
10	0xbce0751b	-0.02739959
11	0xbc96ed80	-0.018423796
12	0xbce4e63b	-0.027941814
13	0x3aed3569	0.0018097583
14	0x3cb874b3	0.022516584
15	0xbd1b1177	-0.037858453
16	0xbbfee2bc	-0.0077784937
17	0xbca8298f	-0.02052763
18	0xbd3c4dcb	-0.045972627
19	0xbc9aac3f	-0.018880961
20	0x3d1ca895	0.03824671
21	0x3c4f1568	0.012639381
22	0xbbea6001	-0.007152558
23	0xbd0dad71	-0.034589235
24	0x3d4a6ccf	0.049420174
25	0x3b5d0d72	0.0033729938
26	0xbd8d5466	-0.06900863
27	0x3b06523a	0.0020495788
28	0xbc7d8e3a	-0.015475804
29	0xbc5977d3	-0.013273197
30	0xbc504ce6	-0.0127136465
31	0x3c919ac5	0.017773995
32	0x3a3ab5d3	0.0007122431
33	0xbc1adcd9	-0.009452068
34	0xbd6fecfc	-0.058575615
35	0x3dc873e0	0.097877264
36	0xbcb97d17	-0.022642655
37	0x3d8f415b	0.069948874
38	0xbc9796db	-0.01850455
39	0xbd8c960d	-0.068645574
40	0xbd740690	-0.05957657
41	0xbd3251c1	-0.043534998
42	0xbc599b5f	-0.013281672
43	0xbdc849e3	-0.09779718
44	0xbda7cff1	-0.081939586
45	0x3d2312de	0.039812915
46	0xbcb54f64	-0.022132583
47	0xbd8a7816	-0.06761186
48	0x3d3f1c4e	0.046657853
49	0xbd9e0495	-0.07715718
50	0xbca5a6fc	-0.020221226
51	0xbbc4bd16	-0.006003986
52	0xbc647ece	-0.013946248
53	0xbb244ce6	-0.002507025
54	0xbd02d0de	-0.031937473
55	0xbc01abe1	-0.007914514
56	0xbc804bb1	-0.015661092
57	0xbc9c4175	-0.019074181
58	0xbcf9f606	-0.03051282
59	0x3d5a72d0	0.05333215
60	0xbd2be6b8	-0.041968077
61	0xbc03e3ed	-0.008049947
62	0x3d2b12f9	0.04176614
63	0x3cb0b7e2	0.021572057

sequential_2/conv2d_5/BiasAdd/ReadVariableOp f4 [64]
0	0xbd11ef6f	-0.035628732
1	0xbc2e1a37	-0.010626367
2	0x3d0cfc0e	0.034420066
3	0xbca2c9c7	-0.019871606
4	0xbb8646d5	-0.0040977993
5	0xbc20201f	-0.009773283
6	0xbc96192f	-0.018322555
7	0xbc4854da	-0.012227261
8	0xbd0bdba8	-0.034145027
9	0x3cce6df6	0.025198918
10	0xbcfcfda2	-0.03088266
11	0x3cc9faeb	0.02465578
12	0x3de34767	0.11097603
13	0xbc419ccd	-0.011817169
14	0xbd2ecb8f	-0.042674597
15	0xbc104bd5	-0.008807142
16	0xbc76c1c8	-0.0150608495
17	0xbd050338	-0.032473773
18	0xbbb7a34e	-0.005604184
19	0x3da32552	0.07966103
20	0x3d3e9e3f	0.046537634
21	0x3da129a9	0.07869274
22	0x3da36e67	0.07980042
23	0x3dba2de5	0.09090785
24	0xbbe9b495	-0.0071321228
25	0xbccb41f4	-0.024811722
26	0x3c30aa8e	0.010782851
27	0x3c370d6d	0.011172635
28	0xbcb69af7	-0.02229069
29	0xbcd5025b	-0.0260021
30	0x3d17fd5c	0.037106857
31	0xbc284859	-0.010271155
32	0xbc0fed03	-0.008784535
33	0xbb373282	-0.002795369
34	0xbd452dd6	-0.048139416
35	0xbbb03de9	-0.005378474
36	0xbccf936b	-0.025338849
37	0xbc966b4f	-0.018361716
38	0x3d2441f9	0.04010198
39	0x3d72bdb0	0.05926293
40	0x3d36adad	0.044599224
41	0xbca879f1	-0.020565959
42	0xbc4b8416	-0.012421628
43	0x3be97874	0.007124955
44	0x3af43a10	0.0018633027
45	0xbc68f632	-0.014218854
46	0xbd686aaa	-0.056742348
47	0xbc1101c9	-0.008850523
48	0xbd01abfd	-0.03165816
49	0xbd19b395	-0.03752478
50	0xbb9db841	-0.0048132245
51	0x3d87a8e9	0.06624014
52	0xbc039d11	-0.008033053
53	0x3dac3151	0.08407844
54	0xbb8fa38c	-0.00438351
55	0xbc4e0894	-0.012575287
56	0xbc0c79e4	-0.008573983
57	0xbc905bd1	-0.017621906
58	0xbc575f2b	-0.013145248
59	0xbc8438de	-0.016140398
60	0xbd445bd5	-0.04793914
61	0x3c28d87d	0.010305521
62	0x39e2fcf5	0.00043294547
63	0xbdb1edc3	-0.086879276

sequential_2/conv2d_1/Conv2D f4 [64, 3, 3, 32]
0	0xbdf39185	-0.1189299
1	0xbe337aa1	-0.17527248
2	0x3d0d274e	0.034461312
3	0x3e024341	0.12720968
4	0x3dd4d276	0.10391705
5	0x3c25267d	0.010079977
6	0xbd6592ee	-0.056048326
7	0xbdef06a7	-0.11671191
8	0xbd2b3a32	-0.041803546
9	0xbc736149	-0.014854738
10	0xbd3e1027	-0.046402123
11	0xbb595fe6	-0.0033168732
12	0x3d0d0049	0.0344241
13	0x3d3b4065	0.04571571
14	0xbde108e7	-0.10988026
15	0xbd042b0c	-0.032267615
16	0x3d8c102d	0.06839023
17	0xbd1deb15	-0.03855427
18	0xbdaf90f8	-0.085725725
19	0x3d995f61	0.07488895
20	0xbe2f8861	-0.17141868
21	0x3ce5ea56	0.028065842
22	0x3d521432	0.05128879
23	0xbd9a8d4d	-0.07546482
24	0x3e1e0778	0.15432537
25	0x3d91f011	0.07125867
26	0x3cd1af63	0.025596326
27	0xbd5600ed	-0.052246977
28	0x3d9fbd5a	0.07799788
29	0x3ddf4925	0.10902623
30	0xbcd3bfea	-0.025848348
31	0x3b1f8cb5	0.0024345343
32	0xbd37b31e	-0.044848554
33	0xbd840b2a	-0.06447442
34	0xbd8ee2b9	-0.06976838
35	0x3d81cf9f	0.06338429
36	0x3bf7fdc4	0.007568093
37	0x3d0fec67	0.03513756
38	0x3d705703	0.05867673
39	0xbdc5ab94	-0.096518666
40	0xbc74f11a	-0.014950061
41	0xbd48cda4	-0.04902424
42	0x3d88895b	0.066668235
43	0x3d8abeff	0.06774711
44	0x3cba188f	0.022716789
45	0x3dbb9dd3	0.09160962
46	0x3b673e6f	0.0035285016
47	0x3bc0ddda	0.0058858218
48	0x3d8a6ca4	0.06759003
49	0xbdfb9e77	-0.12286084
50	0x3ce86424	0.028368063
51	0xbd60f31d	-0.05491935
52	0xbdb637c7	-0.088973574
53	0xbd8de2a3	-0.06927993
54	0x3d3e329d	0.046434987
55	0xbbcae668	-0.0061920173
56	0xbd252553	-0.0403188
57	0xbd7e0f7f	-0.062026497
58	0x3dadcde5	0.08486537
59	0x3d92550f	0.0714513
60	0x3d217838	0.03942129
61	0x3e005476	0.1253222
62	0x3dc91011	0.098175175
63	0x3d8d12b1	0.06888331
64	0xbd8709ee	-0.06593691
65	0x3d2ab97b	0.041680794
66	0xbe421d35	-0.18956454
67	0xbcbe962c	-0.023264967
68	0xbd14317b	-0.03618
69	0x3bba3f30	0.005683802
70	0xbc2f12e9	-0.010685661
71	0x3db15543	0.086588405
72	0x3d6804bf	0.05664515
73	0xbcdf6d6e	-0.02727386
74	0x3d8ced6f	0.06881224
75	0x3d1a2544	0.037633196
76	0x3e222022	0.1583257
77	0x3ca86220	0.020554602
78	0xbd3e5ad9	-0.046473358
79	0xbd8ac7fa	-0.06776424
80	0x3da82d61	0.0821178
81	0xbcdc9449	-0.026926177
82	0x3dba5586	0.090983436
83	0x3bf0b5c5	0.0073458874
84	0xbd4cc0a6	-0.04998841
85	0x3d7abf1d	0.061217416
86	0xbd971cc5	-0.07378534
87	0xbc7b4470	-0.015336141
88	0xbdd1d45c	-0.102455825
89	0x3d7d7232	0.061876483
90	0x3d262b3f	0.040568586
91	0x3d08c6c6	0.03339269
92	0x3d8128ba	0.06306596
93	0x3d4f391b	0.05059157
94	0xbcd53ffd	-0.026031489
95	0x3e068285	0.13135727
96	0xbd998744	-0.07496503
97	0xbe1ad1ce	-0.15119097
98	0xbcf340a4	-0.029693909
99	0x3d412cd2	0.047161885
100	0x3d854a52	0.06508316
101	0x3dc0dda0	0.094172716
102	0x3d01326e	0.031542234
103	0xbe4b9073	-0.19879322
104	0x3b9bd7bf	0.0047559435
105	0xbdf593a0	-0.11991048
106	0xbd8a17a6	-0.06742792
107	0xbd8e51a4	-0.069491655
108	0x3b368380	0.0027849376
109	0xbd46540b	-0.048419993
110	0xbcdaa69f	-0.02669078
111	0xbcd68cc1	-0.026190164
112	0xbd1c629b	-0.038179975
113	0xbd1407c5	-0.036140222
114	0xbdb103c1	-0.08643294
115	0x3db4c037	0.088257246
116	0xbd1e44df	-0.0386399
117	0x3ce18a86	0.027531873
118	0x3bd8e220	0.006618753
119	0xbd6817b2	-0.056663223
120	0x3e07e42c	0.13270634
121	0xbd54fc00	-0.05199814
122	0xbd059762	-0.032615073
123	0xbb2b0183	-0.002609343
124	0xbc5fccf8	-0.013659708
125	0x3d81e97d	0.063433625
126	0x3cbc63f0	0.022996873
127	0x3de39810	0.11112988
128	0xbdd9dfff	-0.10638427
129	0xbdedd3a8	-0.11612636
130	0xbde35045	-0.110992946
131	0xbd8263b3	-0.06366672
132	0x3da204dc	0.07911083
133	0xbd932ef2	-0.071866885
134	0xbd93f14c	-0.07223758
135	0xbdd12f0c	-0.102140516
136	0x3ddb79e1	0.10716606
137	0x3c561367	0.013066149
138	0x3d385e78	0.045011967
139	0xbe270fc0	-0.16314602
140	0xbdb80e4c	-0.08987102
141	0xbdae313b	-0.08505484
142	0xbd640d83	-0.05567695
143	0xbcef7a56	-0.029233139
144	0x3da54c78	0.08071226
145	0xbe0f9e01	-0.14025117
146	0xbc68cf47	-0.014209575
147	0x3d0e36a6	0.034720086
148	0xbd286d76	-0.041120015
149	0x3c76299a	0.015024567
150	0x3ddd8202	0.10815813
151	0xbc8fe3cd	-0.017564679
152	0xbdbdce5a	-0.09267874
153	0xbd102706	-0.035193466
154	0xbd38c298	-0.045107454
155	0x3d4ccd59	0.050000522
156	0x3da0beae	0.07848869
157	0xbc2913b8	-0.010319643
158	0x3d55b024	0.052169934
159	0x3e0aaeb5	0.13543208
160	0xbcb5b8dc	-0.022182874
161	0xbde7adda	-0.113124564
162	0xbe31befa	-0.17358008
163	0x3d6f75fa	0.05846212
164	0x3ccf377d	0.025295014
165	0xbcb15f8a	-0.021652002
166	0x3bd72d4d	0.0065666796
167	0x3aee3e59	0.001817654
168	0xbd08e999	-0.0334259
169	0x3ca4e09b	0.020126631
170	0x3d1e3a14	0.038629606
171	0xbdc9ca88	-0.09853083
172	0xbd04d512	-0.032429762
173	0xbd9489c0	-0.07252836
174	0xbd666b8a	-0.0562549
175	0xbd561690	-0.05226761
176	0xbd7a63ee	-0.061130457
177	0xbcf99c43	-0.03047002
178	0x3d69be5d	0.05706631
179	0xbb0211e0	-0.001984708
180	0x3bf5fb4a	0.0075067626
181	0x3e05c13d	0.13061996
182	0xbccdac59	-0.025106596
183	0xbdaf3e6b	-0.08556827
184	0xbe78cfd7	-0.24298035
185	0x3b4a75ba	0.0030892924
186	0xbcd1116a	-0.025520999
187	0x3d7b5931	0.061364356
188	0xbcb2723a	-0.021782983
189	0xbc21a080	-0.009864926
190	0xbc370446	-0.011170452
191	0x3da6e173	0.0814847
192	0xbe138674	-0.14406759
193	0xbdd731cf	-0.10507547
194	0xbd5bea02	-0.053689964
195	0xbd3b3e76	-0.045713864
196	0xbd0f40bf	-0.034973856
197	0x3da059ee	0.07829653
198	0xbdc6fb43	-0.09715893
199	0xbe4b19c5	-0.19834049
200	0x3dc6d5ee	0.097087726
201	0xbdaa4694	-0.08314243
202	0x3d09a961	0.033608798
203	0xbddcfa26	-0.107898995
204	0x3d888f39	0.066679426
205	0x3cc3be40	0.02389443
206	0xbcba88a2	-0.02277023
207	0xbd0cf34d	-0.034411717
208	0x3cbb9266	0.022896957
209	0xbdf8ed56	-0.12154643
210	0xbe2cb6fb	-0.16866677
211	0x3c6cb71c	0.014447954
212	0xbd99816c	-0.074953884
213	0xbcfa467c	-0.030551188
214	0x3ce19600	0.027537346
215	0xbcbbfa63	-0.022946542
216	0x3c52d5a8	0.012868322
217	0x3da10a85	0.078633346
218	0xbd01a1e6	-0.03164854
219	0xbccdac09	-0.025106447
220	0x3cf419b1	0.029797407
221	0x3dac0569	0.083994694
222	0xbd11ccf3	-0.035595845
223	0xbce2aed4	-0.027671255
224	0xbdcc5ff4	-0.09979239
225	0xbe74cace	-0.23905489
226	0xbd657209	-0.056016956
227	0xbc963e9a	-0.018340398
228	0x3d008fd8	0.03138718
229	0xbda88a09	-0.08229453
230	0xbd100db8	-0.035169333
231	0xbe27ccc0	-0.163867
232	0xbc70cbc4	-0.014697019
233	0xbc57c361	-0.013169141
234	0xbcf4425d	-0.0298168
235	0xbde15e93	-0.11004367
236	0xbdf54f4a	-0.11978014
237	0x3c974fcc	0.018470667
238	0x3c31f541	0.010861696
239	0x3c6f9f21	0.014625342
240	0xbc1ff23d	-0.009762344
241	0xbe1e4b64	-0.15458447
242	0xbca0d618	-0.019633338
243	0x3d092060	0.03347814
244	0xbd835578	-0.06412786
245	0xbc66a0fb	-0.014076467
246	0x3e0f703e	0.14007661
247	0x3d6a4cad	0.05720203
248	0xbd8ecf2b	-0.06973108
249	0xb879a800	-5.952269e-05
250	0xbd2970fd	-0.04136752
251	0xbb506b72	-0.0031802324
252	0x3d2a0cd7	0.04151615
253	0x3d31e204	0.043428436
254	0xbc5ce8fb	-0.013483281
255	0xbd6613c8	-0.05617121

sequential_2/conv2d_2/Conv2D f4 [64, 3, 3, 64]
0	0x3e416b85	0.18888672
1	0xbd82ef99	-0.06393356
2	0xbd2c6026	-0.04208388
3	0xbd4c5887	-0.049889114
4	0x3e1c148a	0.1524221
5	0xbd93f29f	-0.07224011
6	0x3dc9551e	0.09830688
7	0x3e16548d	0.14680691
8	0x3dd05577	0.10172551
9	0x3d548a1d	0.051889528
10	0x3ba2f20e	0.004972703
11	0xbd545e7b	-0.051847916
12	0x3d06bfdc	0.032897815
13	0xbd21c9d6	-0.039499126
14	0x3d8964d3	0.06708684
15	0x3e06e281	0.13172342
16	0x3db413ad	0.08792815
17	0xbccdb991	-0.025112899
18	0x3d3fa288	0.04678586
19	0xbc81d621	-0.015849175
20	0x3d01a8e0	0.031655192
21	0x3cf93190	0.030419141
22	0x3e300333	0.1718872
23	0xbcf5c1e5	-0.029999683
24	0x3db93e29	0.09045059
25	0xbcc29ac8	-0.023755446
26	0xbd5188f9	-0.051156018
27	0x3d22cc81	0.03974581
28	0x3c508c28	0.012728728
29	0x3d01b593	0.031667303
30	0xbd5948ae	-0.05304783
31	0x3d7e176e	0.062034063
32	0x3de6a429	0.1126178
33	0x3e1d113e	0.15338609
34	0xbd21410f	-0.039368685
35	0xbc91f382	-0.017816309
36	0x3d44cf56	0.048049293
37	0xbd3a10d5	-0.04542621
38	0xbd4c37d3	-0.049857926
39	0xbdadffa0	-0.08496022
40	0xbca3f48c	-0.02001407
41	0x3d4de1c1	0.050264124
42	0xbcd490be	-0.025947925
43	0xbc913d5f	-0.01772946
44	0x3d9bc07c	0.07605073
45	0xbd2cf693	-0.04222734
46	0xbd6225f1	-0.055211965
47	0x3dfe1d71	0.12407959
48	0x3dfcfddf	0.123531096
49	0x3ce84902	0.028355125
50	0xbba58df9	-0.005052325
51	0xb96beaca	-0.00022498812
52	0x3cf1c2c1	0.029511811
53	0x3b12ed3b	0.0022419232
54	0xbcb0a782	-0.021564249
55	0x3de61c99	0.11235923
56	0xbd962b5b	-0.07332488
57	0x3b379471	0.0028012062
58	0x3deb533c	0.11490485
59	0x3d288ad4	0.04114802
60	0xbcc436ae	-0.023951855
61	0xbc80650b	-0.015673181
62	0xbd482261	-0.04886091
63	0xbd85c838	-0.06532329
64	0xbd10238c	-0.03519015
65	0xbbf567aa	-0.0074891644
66	0x3d23657e	0.039891712
67	0xbd527136	-0.051377498
68	0x3cde39ec	0.027127229
69	0xbd4adf0c	-0.04952912
70	0x3d0a0a48	0.03370121
71	0x3de092b5	0.10965482
72	0x3c326c5a	0.010890091
73	0x3cd8618a	0.026413698
74	0x3c3ee1de	0.011650531
75	0xbd5a48ca	-0.053292073
76	0xbc4d45c9	-0.012528845
77	0x3d1eec16	0.038799368
78	0x3d2a3bf0	0.041561067
79	0x3e05c660	0.13063955
80	0x3d383f28	0.044982105
81	0xbd27ee43	-0.04099871
82	0xbcc070ee	-0.02349135
83	0xbd7357c0	-0.059409857
84	0x3da8d77f	0.082442276
85	0x3d23f8e6	0.04003229
86	0x3d05f0dd	0.03270041
87	0x3d4fd473	0.050739717
88	0xbd4aede2	-0.04954327
89	0xbba1da1f	-0.004939332
90	0xbbc3aa1f	-0.0059712077
91	0xbd389421	-0.04506314
92	0xbd861475	-0.065468706
93	0x3d8bddf4	0.068294436
94	0x3cdb0e26	0.026740145
95	0xbd98db47	-0.07463699
96	0xbc98e8eb	-0.018665751
97	0x3d569ac2	0.052393682
98	0xbc7c8b14	-0.015414018
99	0xbd66c5c6	-0.056340955
100	0x3d1bb72a	0.038016476
101	0xbe11f5b8	-0.1425389
102	0xbdc6e8a8	-0.097123444
103	0x3bf3950d	0.0074335397
104	0x3d3057f5	0.043052632
105	0x3d3ad33d	0.04561161
106	0xbddb7c03	-0.10717013
107	0x3cf1d4fa	0.0295205
108	0x3e35da75	0.17759116
109	0x3c5c71df	0.013454883
110	0xbd96ee76	-0.073697016
111	0xb9407c6b	-0.00018356896
112	0x3dfd6c6c	0.123741955
113	0xbdb1a3b8	-0.08673805
114	0xbc2541f9	-0.01008653
115	0xbcdd46bd	-0.02701127
116	0x3d2e7ff5	0.042602498
117	0x3d764d49	0.0601323
118	0x3ca8f25c	0.020623378
119	0x3deb80f2	0.11499204
120	0x3d7fc539	0.062443946
121	0x3d549e5b	0.051908832
122	0x3deda058	0.11602849
123	0x3c9f539c	0.019449048
124	0xbd5a64f7	-0.053318944
125	0x3dbe1eb9	0.09283204
126	0x3af54692	0.0018713048
127	0xbdaddace	-0.08488999
128	0xbd4f897c	-0.050668225
129	0x3d210624	0.039312497
130	0xbccb01a1	-0.02478105
131	0x3cd6bb81	0.026212456
132	0x3d1df5b8	0.038564414
133	0xbcbf500f	-0.023353605
134	0xbd14d1d9	-0.03633294
135	0xbbe0f5ca	-0.006865238
136	0x3d0a189d	0.03371488
137	0x3d3f469f	0.04669821
138	0xbcc14548	-0.023592606
139	0xbca25a04	-0.019818313
140	0x3cf119c7	0.029431237
141	0x3d828b3b	0.06374212
142	0x3b56405e	0.0032692174
143	0x3dd72874	0.10505763
144	0xbce9b186	-0.028527033
145	0x3d692d30	0.05692786
146	0xbd8ae68f	-0.06782257
147	0x3da9d44f	0.08292448
148	0xbcbf3667	-0.02334137
149	0x3c2efb31	0.010680006
150	0xbc568a01	-0.013094426
151	0x3e24da37	0.16098867
152	0xbcd1cd06	-0.025610458
153	0xbc882cc1	-0.016622903
154	0x3d43bc76	0.047787152
155	0xbdc603f3	-0.09668722
156	0x3d2922ce	0.041292958
157	0xbd2b9854	-0.04189332
158	0x3bab9d0a	0.0052372264
159	0xbe1406e6	-0.14455757
160	0x3cded070	0.027199
161	0x3d69a6ae	0.057043724
162	0xbd7573ca	-0.05992488
163	0xbcd6410d	-0.026154066
164	0xbb60dd59	-0.003431162
165	0xbd838dd0	-0.06423533
166	0xbd9d5bc4	-0.076835185
167	0xbdb3019d	-0.08740542
168	0xbd8cd398	-0.06876296
169	0x3d8ce689	0.068799086
170	0xbdcb13d1	-0.09915889
171	0x3cab3f3a	0.020904172
172	0x3e685a6e	0.22690746
173	0x3d753f90	0.05987507
174	0xbc804171	-0.015656205
175	0xbc2f7514	-0.010709066
176	0xbd1faa3b	-0.038980704
177	0x3d00fd89	0.03149179
178	0xbd8efd1b	-0.0698187
179	0xbd07865b	-0.033087116
180	0x3d126203	0.035738003
181	0x3d081d68	0.03323117
182	0x3d808f9c	0.06277391
183	0xbce43669	-0.027857976
184	0x3bcbc12e	0.006218097
185	0x3db16d9e	0.08663486
186	0x3d7d5667	0.061849978
187	0xbd6c2786	-0.05765488
188	0xbb33c367	-0.0027429701
189	0xbd777f44	-0.060424104
190	0xbd909080	-0.07058811
191	0xbdf9dd3b	-0.122003995
192	0x3dae2530	0.08503187
193	0x3d803688	0.06260401
194	0xbc7def80	-0.015498996
195	0xbd8c8320	-0.068609476
196	0x3dc991f5	0.09842292
197	0xbdc96e4e	-0.09835492
198	0x3d929987	0.07158189
199	0x3e25f5f2	0.16207102
200	0x3d8bc695	0.06824986
201	0x3cf2e786	0.029651415
202	0xbd24d9bd	-0.040246714
203	0x3cc63901	0.024197103
204	0x3d15481f	0.036445733
205	0xbc42583d	-0.011861858
206	0x3bbf8dee	0.0058457768
207	0xbcba2b85	-0.02272583
208	0x3dbe91b6	0.09305136
209	0xbd2287dc	-0.039680347
210	0xbc2b808f	-0.0104676625
211	0xbd0baa13	-0.034097742
212	0x3c807ba4	0.015683956
213	0x3baadd73	0.005214387
214	0x3da10129	0.078615494
215	0x3e1c7a8d	0.15281124
216	0x3d5487bc	0.05188726
217	0x3cff67a5	0.031177351
218	0xbbf2999c	-0.0074035656
219	0x3d874106	0.06604199
220	0xbd60e24e	-0.05490332
221	0x3d806f02	0.06271173
222	0x3d593816	0.053032003
223	0x3caec05a	0.021331955
224	0x3d178184	0.03698875
225	0x3db6235a	0.088934615
226	0x3d4bba3f	0.049738165
227	0xbd187462	-0.037220366
228	0xbd08ecda	-0.033429004
229	0xbdfb893c	-0.12282035
230	0xbd03d930	-0.032189548
231	0x3cbee808	0.023304
232	0xbc5b5923	-0.013387951
233	0x3c702dc8	0.014659353
234	0x3b572702	0.0032829647
235	0xbd872c95	-0.066003
236	0x3e27a165	0.16370161
237	0xbcc948d0	-0.024570853
238	0x3d0b5a3c	0.0340216
239	0x3bf7501a	0.0075473906
240	0x3d5eb11d	0.054368127
241	0x3c2fc6aa	0.010728518
242	0x3d4da275	0.05020376
243	0x3d03297c	0.032021984
244	0x3d4ee6c0	0.05051303
245	0xbd28fb93	-0.041255545
246	0x3cc8bdd7	0.024504585
247	0x3de94495	0.11390034
248	0x3b61b4ba	0.0034439997
249	0x3e184536	0.14870152
250	0x3e0d6172	0.13806704
251	0xbd1a9c77	-0.037746873
252	0x3d870cfb	0.06594273
253	0xba9c562f	-0.001192754
254	0xbe12d5a4	-0.1433931
255	0xbe109b7a	-0.1412181

sequential_2/conv2d_3/Conv2D f4 [64, 3, 3, 64]
0	0xbc748864	-0.014925096
1	0x3d4fd26f	0.050737794
2	0x3ce09220	0.027413428
3	0xbc3efe64	-0.011657331
4	0xbd7d5c36	-0.061855517
5	0xbcea2392	-0.028581414
6	0x3bd4de45	0.006496223
7	0xbce8a600	-0.028399467
8	0x3d020bb1	0.03174943
9	0x3b04eecd	0.0020283938
10	0xbcae5bfc	-0.021284096
11	0xbc6f64b4	-0.014611412
12	0x3c9465e8	0.018114999
13	0xbd625176	-0.05525347
14	0xbc79da64	-0.015249822
15	0xbd46db0e	-0.04854875
16	0xbd925482	-0.07145025
17	0xbd1ef41d	-0.038807023
18	0x3d30f912	0.043206282
19	0xbd0417cc	-0.032249257
20	0x3d1d1b17	0.038355913
21	0xbd7637bb	-0.060111742
22	0xbdaa40a6	-0.08313112
23	0xbb25fcd4	-0.00253277
24	0x3c7fc12c	0.015610021
25	0xbc718ea2	-0.014743479
26	0xbc89a8ae	-0.016804066
27	0xbd8b7aa5	-0.06810502
28	0xbd34359c	-0.04399644
29	0x3d05ff05	0.03271391
30	0xbc73a556	-0.014870962
31	0xbd0f2f0e	-0.034956984
32	0x3c76782f	0.015043302
33	0x3d53fbf5	0.051753957
34	0x3c8bb403	0.01705361
35	0xbc20d423	-0.009816202
36	0xbd53109f	-0.051529523
37	0xbd4e481c	-0.050361738
38	0xbd6edeaf	-0.058317836
39	0x3c7b7034	0.0153465755
40	0x3d3316c2	0.043722875
41	0xbdbbf646	-0.09177832
42	0x3d1cc91c	0.03827773
43	0xbd5e2763	-0.05423678
44	0xbb89c425	-0.0042042905
45	0xbda0adf4	-0.07845679
46	0x3ce5c8f2	0.02804992
47	0x3aed4300	0.0018101633
48	0x3c880ea2	0.01660854
49	0xbd89ae5a	-0.06722708
50	0x3cf270b3	0.029594755
51	0xbd727e8c	-0.059202716
52	0xbcbdacb3	-0.023153638
53	0x3d0da504	0.0345812
54	0xbd655e8c	-0.05599837
55	0x3d067608	0.032827407
56	0x3b90871d	0.004410638
57	0xbd8b5330	-0.06802976
58	0xbd857383	-0.06516173
59	0xbd099a18	-0.03359422
60	0xbc21eeb8	-0.009883575
61	0x3c6f33b8	0.014599733
62	0xbd864b6b	-0.065573536
63	0xbbc1f098	-0.0059185736
64	0xbd972f27	-0.073820405
65	0xbd07565b	-0.03304134
66	0xbc645082	-0.01393521
67	0x3cb62899	0.022236155
68	0xbae9f1de	-0.0017848571
69	0x3d32d608	0.043661147
70	0x3c8d10a2	0.017219845
71	0xbd33812e	-0.043824367
72	0x3abae46a	0.0014258747
73	0xbc9998c9	-0.018749611
74	0xbce90fc0	-0.028449893
75	0xbd140ddc	-0.03614603
76	0xbd7059a0	-0.058679223
77	0xbc23007c	-0.009948846
78	0x3d48cc00	0.049022675
79	0xbd899661	-0.067181356
80	0xbd5af473	-0.05345578
81	0x3cfa70b8	0.030571327
82	0x3cf8b856	0.030361336
83	0xbcd87265	-0.026421735
84	0xbcf5c2be	-0.030000087
85	0x3d822630	0.0635494
86	0xbc479f64	-0.012183998
87	0x3c7f028a	0.01556457
88	0x3d251d1e	0.04031097
89	0x3d84435c	0.0645816
90	0x3c2221d9	0.009895765
91	0xbdb55bef	-0.088554256
92	0x3d8214ca	0.063516214
93	0xbce20e6c	-0.027594768
94	0x3ca61696	0.020274442
95	0xbc4ebe63	-0.012618634
96	0x3bc169b2	0.0059024924
97	0x3d887f2e	0.066648826
98	0x3d633293	0.055468153
99	0x3c6a2fd8	0.014293633
100	0x3cf06a86	0.02934767
101	0xbd5d2aa1	-0.053995732
102	0x3d0211c7	0.031755235
103	0xbd2633ec	-0.04057686
104	0xbd851478	-0.06498045
105	0xba6b2a2f	-0.00089708244
106	0x3c678762	0.014131399
107	0x3c50018b	0.01269568
108	0xbd08281c	-0.033241376
109	0x3cbe436a	0.023225505
110	0x3c8f7ab6	0.017514568
111	0xbd26d54e	-0.040730767
112	0x3c68c7be	0.0142077785
113	0xbc0ebca2	-0.008711966
114	0xbdab623d	-0.08368347
115	0x3cc0588b	0.02347972
116	0x3c3a349b	0.011365081
117	0x3caa34dd	0.02077716
118	0xbd9f96d1	-0.07792438
119	0x39613467	0.00021477194
120	0xbb880355	-0.004150788
121	0xbd69725a	-0.05699382
122	0xbda0466f	-0.07825934
123	0x3ca85be8	0.020551637
124	0xbd2e0fb2	-0.042495437
125	0xbd6956c5	-0.056967515
126	0xbd3a6ab5	-0.04551192
127	0xbd67e0bc	-0.056610808
128	0xbdcc855c	-0.09986374
129	0x3c940f6b	0.018073758
130	0xbcd5599e	-0.02604371
131	0x3d78e7a4	0.060767785
132	0x3d06d4d1	0.0329178
133	0xbc067058	-0.008205496
134	0x3cf29d7b	0.029616108
135	0xbdca17f2	-0.098678485
136	0x3d1f289c	0.038857087
137	0x3c0d6064	0.008628938
138	0x3d18b207	0.037279155
139	0xbd16d49d	-0.036823858
140	0xbb2d9a20	-0.002648957
141	0xbcff62a9	-0.031174975
142	0xbca834cf	-0.020532994
143	0xbba0c793	-0.0049066036
144	0xbd5e40e6	-0.05426111
145	0xbccd951f	-0.02509552
146	0x3d86852f	0.065683715
147	0x3d937a45	0.072010554
148	0x3b4d906e	0.0031366604
149	0xbd816098	-0.06317252
150	0xbc8bbf5f	-0.017059026
151	0xbc3e08c4	-0.01159877
152	0x3d40938e	0.04701572
153	0x3d891a1e	0.066944346
154	0xbc28a41a	-0.010293031
155	0xbd96fccd	-0.07372437
156	0xbc2c8bfd	-0.010531423
157	0x3c48138b	0.012211691
158	0xbbca089d	-0.0061655776
159	0xbd8bed66	-0.068323895
160	0xbcd25946	-0.025677335
161	0xbd6b1d65	-0.05740108
162	0xbcd99f00	-0.026565075
163	0xbd2db8e5	-0.042412657
164	0xbbf8f414	-0.0075974558
165	0x3d674c5c	0.056469306
166	0x3d0498e9	0.03237239
167	0xbc1b129c	-0.009464886
168	0xbda1c1f3	-0.07898321
169	0xbc31ad28	-0.010844506
170	0x3ca339a2	0.019924942
171	0x3d423243	0.047411215
172	0xbd50e3cd	-0.050998498
173	0xbcc7bc8c	-0.024381898
174	0xbd4f88fb	-0.050667744
175	0xbbe0f010	-0.006864555
176	0xbc47b30c	-0.012188684
177	0xbc902d98	-0.017599866
178	0x3d1941d3	0.03741629
179	0x3d50cb40	0.050975084
180	0xbd24f787	-0.040275123
181	0xbd75ec53	-0.06003983
182	0xbd34ea53	-0.04416878
183	0xbbf1ec1c	-0.0073828828
184	0xbca6fdc7	-0.020384682
185	0xbd2af8f4	-0.041741326
186	0xba91973b	-0.0011107692
187	0xbca98cf7	-0.0206971
188	0xbd9577bc	-0.07298228
189	0xbda0fccf	-0.078607194
190	0xbcdced8b	-0.026968738
191	0xbccfa882	-0.025348905
192	0xbd3f7e46	-0.046751283
193	0xbda72f0d	-0.08163271
194	0xbcb350d8	-0.021889135
195	0x3d13bf52	0.03607113
196	0x3b84a961	0.004048512
197	0xbba4092e	-0.005005977
198	0x3d08f8d0	0.03344041
199	0xbcae81c3	-0.02130211
200	0xbc0422e0	-0.0080649555
201	0xbd17c63f	-0.037054297
202	0xbddbba7c	-0.107289284
203	0x3d1d7a79	0.038446877
204	0xbd20ef5f	-0.039290782
205	0x3cee73d9	0.029107975
206	0xbd81de72	-0.06341256
207	0x3d2e3701	0.042532925
208	0xbc837750	-0.016048104
209	0xbc25e047	-0.010124273
210	0x3d8eab27	0.069662385
211	0xbbbc9c7a	-0.005755958
212	0xbcc25ef3	-0.023726916
213	0x3cc7775c	0.024348907
214	0xbcb81c28	-0.022474363
215	0xbd1f7980	-0.03893423
216	0x3c87f3ba	0.01659571
217	0x3ba925e7	0.005161989
218	0xbda2d24c	-0.07950267
219	0xbd3fb974	-0.04680772
220	0x3d5eb32f	0.0543701
221	0xbc308230	-0.010773227
222	0xbd534462	-0.051578887
223	0xbd85b4dc	-0.06528637
224	0x3d22de6e	0.039762907
225	0x3c237960	0.0099776685
226	0x3c3810a4	0.011234436
227	0xbc836a41	-0.016041877
228	0xbc1e4df0	-0.009662136
229	0xbd071d42	-0.032986887
230	0x3cae7e17	0.021300359
231	0x3d1bc5b0	0.038030326
232	0x3b8e8e02	0.0043504247
233	0xbbdca0d2	-0.0067330385
234	0xbdd0eca1	-0.102013834
235	0xbc3491c3	-0.01102108
236	0xbd387931	-0.045037452
237	0xbd1dfac4	-0.038569227
238	0xbcdbcbb1	-0.026830526
239	0x3d8c7812	0.06858839
240	0x3bb40a02	0.005494357
241	0x3d543a13	0.051813196
242	0xbcae7f25	-0.021300862
243	0xbd0c61d3	-0.03427298
244	0xbd83fb27	-0.06444388
245	0xbc1b54da	-0.009480679
246	0x3d792baf	0.060832676
247	0xbd37d331	-0.044879142
248	0xbc67a152	-0.014137583
249	0xbd111b3f	-0.035426375
250	0xbd990e75	-0.074734606
251	0x3cd1755a	0.025568653
252	0xbccfc190	-0.025360852
253	0xbc19a328	-0.009377278
254	0xbd1dc53f	-0.038518187
255	0xbd8942a3	-0.06702163

sequential_2/conv2d_4/Conv2D f4 [64, 3, 3, 64]
0	0xbd2d84db	-0.04236303
1	0xbcfab8c1	-0.030605676
2	0x3d8a8df5	0.067653574
3	0x3dc914f5	0.0981845
4	0xbad47145	-0.0016208073
5	0x3d609960	0.05483377
6	0x3b5225ea	0.0032066056
7	0xbcf3626d	-0.029710019
8	0x3d0a59c9	0.033777032
9	0xbd694c7a	-0.0569577
10	0xbe2468b4	-0.16055566
11	0xbd90d6a5	-0.0707219
12	0xbdaf0462	-0.08545758
13	0xbd131549	-0.03590897
14	0xbd3119c7	-0.043237474
15	0x3d31d435	0.043415267
16	0x3d92ad1b	0.071619235
17	0x3c2b84ac	0.010468643
18	0xbc34b66d	-0.011029822
19	0xbc5c03d5	-0.013428648
20	0xbd2e7baf	-0.042598423
21	0xbdf4662d	-0.11933551
22	0xbda04b45	-0.078268565
23	0xbda68b10	-0.08131993
24	0x3d8d7f85	0.06909088
25	0x3d6316b9	0.055441592
26	0x3d4d8aab	0.050181072
27	0xbd177b07	-0.036982562
28	0xbc86121b	-0.016366055
29	0x3de08731	0.10963286
30	0xbb94f406	-0.0045456914
31	0x3d51170d	0.051047374
32	0xbd0534b1	-0.032520954
33	0xbce1840d	-0.027528787
34	0xba0b1890	-0.00053060893
35	0x3cfb6aee	0.030690636
36	0x3d0ba375	0.03409143
37	0x3d14cc18	0.03632745
38	0xbcb74fd0	-0.022376925
39	0xbde0edd0	-0.10982859
40	0xbe00ead4	-0.1258958
41	0xbda19240	-0.07889223
42	0x3de2d876	0.11076443
43	0xbe080c22	-0.13285878
44	0xbce1200c	-0.027481101
45	0xbc9b5c95	-0.018965045
46	0x3dc7483a	0.09730573
47	0x3c822964	0.015888877
48	0xbe4611fa	-0.19342795
49	0xbd681bb3	-0.05666704
50	0x3daf5f63	0.085631154
51	0x3a5b9f07	0.0008377884
52	0xbe2ff1cf	-0.17182086
53	0xbd65a11c	-0.05606185
54	0xbd8b93ee	-0.06815325
55	0x3e03d92d	0.12875815
56	0xbd040655	-0.0322326
57	0xbda202a4	-0.0791066
58	0x3c66097a	0.014040345
59	0xbd7f1f2d	-0.06228559
60	0x3cf4ae50	0.029868275
61	0xbd003411	-0.031299654
62	0x3d46663f	0.048437353
63	0x3bef5262	0.007303522
64	0xbcc72cbf	-0.024313329
65	0xbbf9b82c	-0.007620832
66	0x39ada4ce	0.0003311992
67	0xbcf15153	-0.029457724
68	0xbb7aa3d9	-0.0038244633
69	0xbd1120ff	-0.03543186
70	0x3cbcb0d9	0.023033546
71	0xbd4df621	-0.050283555
72	0xbc16317f	-0.009167074
73	0x3c77c3a4	0.015122328
74	0xbdf58ae4	-0.11989382
75	0xbdd7353f	-0.10508203
76	0xbd6bffe8	-0.057617098
77	0xbd290aff	-0.041270252
78	0xbd6cec27	-0.0578424
79	0x3d4d3b97	0.050105657
80	0x3cd93108	0.026512638
81	0xbc8ebe06	-0.017424595
82	0x3d9fea83	0.078084014
83	0xbcba364e	-0.022730973
84	0xbddacdeb	-0.10683807
85	0xbdd9d092	-0.10635485
86	0xbdac96bb	-0.08427187
87	0xbda96ff1	-0.08273304
88	0x3df26703	0.11836054
89	0xbcc194f7	-0.023630602
90	0x3cc7610d	0.02433827
91	0x3d69dd56	0.057095848
92	0x3bdfe941	0.006833226
93	0x3dc911a4	0.09817818
94	0xbd22d305	-0.039752025
95	0xbd3416c1	-0.043967012
96	0x3d61db4d	0.055140782
97	0x3c8bba54	0.017056622
98	0xbcb3b1d0	-0.021935374
99	0x3d8f6332	0.07001342
100	0x3d31c868	0.043404013
101	0xbd0a44a0	-0.033756852
102	0x3d9cbf33	0.07653656
103	0xbd90e851	-0.07075561
104	0xbe25c1cb	-0.16187207
105	0x3cd50fe4	0.026008554
106	0x3d8a0f1f	0.06741165
107	0xbdd306ad	-0.10304008
108	0xbdbea213	-0.09308257
109	0xbe013fe3	-0.12622027
110	0xbcc7203a	-0.024307359
111	0x3d7b6a3c	0.06138061
112	0xbe3764fb	-0.17909615
113	0x3d423bf9	0.047420476
114	0xbc5fbc35	-0.013655712
115	0x3d9b16d6	0.07572715
116	0x3c8428e9	0.016132789
117	0x3d8947ca	0.06703146
118	0xbdee9506	-0.11649518
119	0xbc8a94bb	-0.016916623
120	0xbc1788ca	-0.009248922
121	0xbd97afe1	-0.07406593
122	0x3bf17a60	0.0073693246
123	0xbd476e52	-0.048689194
124	0x3d1fe7d5	0.03903945
125	0x3c82decd	0.01597538
126	0xbca438a6	-0.020046543
127	0x3d0a4749	0.03375939
128	0xbd748b09	-0.059702907
129	0x3c72504a	0.01478965
130	0x3ceab2d2	0.028649721
131	0xbd059814	-0.032615736
132	0x3d146a45	0.03623416
133	0xbd50aa25	-0.050943512
134	0xbda3eb47	-0.0800386
135	0x397da08e	0.00024187771
136	0xbd3fab39	-0.04679415
137	0x3d5385c3	0.051641237
138	0x3ce58c78	0.028021082
139	0x3d8c06f8	0.06837267
140	0x3d3e2e94	0.04643114
141	0xbd9bdbb9	-0.07610268
142	0xbaeb6e26	-0.0017961904
143	0x3ce3c365	0.027803132
144	0x3d43760a	0.047719993
145	0x3caae79e	0.020862397
146	0x3cd3c788	0.02585198
147	0xbc11ac46	-0.008891171
148	0x3d946223	0.072452806
149	0x3dbc95a6	0.09208231
150	0xbd14014a	-0.03613404
151	0x3d0c464a	0.03424672
152	0x3d0af199	0.03392181
153	0xbd18e8e2	-0.03733147
154	0xbd3c0023	-0.045898568
155	0xbd342238	-0.043977946
156	0xbc4f0365	-0.012635087
157	0x3d86b8bd	0.06578205
158	0xbd2385d6	-0.039922558
159	0xbd773e16	-0.060361944
160	0x3c7f162e	0.015569253
161	0xbd14ec29	-0.036358032
162	0xbd21b869	-0.039482508
163	0xbd3f0736	-0.046637736
164	0x3d5a1a9c	0.053248033
165	0x3bfff365	0.0078109973
166	0x3cabc85e	0.020969566
167	0xbd14944c	-0.03627424
168	0x3cb2cf47	0.021827353
169	0x3c3a6ed7	0.011378965
170	0x3d6bf4e5	0.057606596
171	0x3de97405	0.11399082
172	0xbd54e0b9	-0.051972125
173	0xbca6980f	-0.020336179
174	0xbd379e3c	-0.04482864
175	0xbcccc6be	-0.024997111
176	0xbc023973	-0.007948267
177	0x3d6f33d6	0.058399044
178	0xbd2ab94d	-0.041680623
179	0x3d886de9	0.06661589
180	0x3d0c2f31	0.034224693
181	0xbcda51a2	-0.026650254
182	0x3d67bbce	0.05657559
183	0x3d8fc9ec	0.070209354
184	0x3d81d730	0.06339872
185	0xbb849899	-0.0040465114
186	0x3d10063a	0.035162188
187	0x3bde0279	0.006775197
188	0x3dc31f79	0.09527487
189	0xbd1feb57	-0.039042797
190	0xbc636cb5	-0.013880898
191	0xbd58038d	-0.05273776
192	0xbca712e9	-0.02039476
193	0xbcde8b8b	-0.027166149
194	0x3d71a580	0.058995724
195	0x3dabf770	0.08396804
196	0xbe0ccced	-0.13750048
197	0x3d5de62b	0.054174583
198	0xbd2f4ad3	-0.042795967
199	0xbd0fa406	-0.035068534
200	0x3c5c2497	0.013436458
201	0xbcc3ce7c	-0.02390217
202	0xbe21c3a8	-0.15797293
203	0xbde6c720	-0.11268449
204	0xbd9cd45d	-0.076576926
205	0xbc9d048c	-0.019167207
206	0xbb9fdd00	-0.00487864
207	0xbd858f78	-0.06521505
208	0x3b6cdac6	0.0036141141
209	0x3d6b9bbf	0.057521578
210	0x3ca0745e	0.019586738
211	0x3d3a0190	0.045411646
212	0xbe0de6d0	-0.13857579
213	0xbe1ff296	-0.15619883
214	0xbe1af364	-0.15131909
215	0x3d1b9bed	0.0379905
216	0x3d391f4e	0.04519587
217	0xbbc60523	-0.006043093
218	0x3c08e5a2	0.00835553
219	0x3d992d85	0.07479385
220	0xbdabc285	-0.08386711
221	0xbc0eacaf	-0.008708163
222	0xbd5f85ca	-0.05457095
223	0x3bf2b817	0.007407199
224	0xbc81591b	-0.01578956
225	0xbcea103d	-0.028572196
226	0x3d78c3de	0.06073367
227	0xbc39236b	-0.011299948
228	0xbda99f81	-0.08282376
229	0x3d070601	0.03296471
230	0xbc38a963	-0.011270854
231	0xbd6e44de	-0.058171146
232	0xbe17e3c3	-0.14832978
233	0xbd3deeb2	-0.046370216
234	0xbd06982f	-0.032859977
235	0xbdcd3b72	-0.10021104
236	0xbe54d941	-0.20786001
237	0xbdd22082	-0.102601066
238	0x3c4404c1	0.011964024
239	0xbd22936b	-0.03969137
240	0xbe0a0c7c	-0.13481325
241	0xbbdd4b2a	-0.006753345
242	0x3d0a7f12	0.03381259
243	0xbaaa2225	-0.0012980147
244	0xbd5ccb41	-0.053904776
245	0x3b8d96c5	0.0043209516
246	0xbe1627b4	-0.14663583
247	0x3d9c13af	0.07620942
248	0x3c959b33	0.018262481
249	0x3a0a16cf	0.0005267681
250	0xbd999413	-0.07498946
251	0xbda49b64	-0.08037451
252	0xbcb4fa83	-0.02209211
253	0xbd45deb9	-0.048308108
254	0xbce20e22	-0.02759463
255	0xbdc1865b	-0.094494544
